model/model_t=30.pth (torch, 3494 bytes, 6 tensors)

fc_layers.0.weight f4 [10, 7]
000000 72 15 92 be 57 a1 06 3f 74 23 2f 3e 47 1f a1 bd
       -0.28531986 0.52589935 0.17103368 -0.07867294
000010 fb 51 57 be f0 c4 93 be f6 ca 4a 3e 47 82 42 3e
       -0.21027367 -0.2886119 0.19803986 0.1899501
000020 1d 95 a7 3c f0 6b 3f 3e e0 b6 93 be 80 9b 0a bf
       0.020456845 0.18693519 -0.2885046 -0.54143524
000030 5b 6a 6b 3e ef 76 92 bc cf a5 68 be 2d bf 20 bf
       0.2298979 -0.017878978 -0.22719501 -0.6279171
000040 19 cd 04 3f f1 67 76 3d 9d e5 22 be ce af e1 bc
       0.51875454 0.06015772 -0.15907903 -0.02754965
000050 7e 73 c2 3e 86 d0 52 3e 8e 38 74 bd 64 16 47 be
       0.3797874 0.20587358 -0.059624247 -0.19442135
000060 86 01 97 bd d2 c1 8b 3e 00 2c c4 3d 3a 2c 33 3e
       -0.073733374 0.2729631 0.09578705 0.1749734
000070 8f 27 b6 be 1a 8a 93 3c 28 05 c0 3e d5 86 4f be
       -0.35577056 0.018010188 0.37503934 -0.20266278
000080 76 41 6f bd af d8 a9 3d 24 25 5c 3e 3b 3c b2 be
       -0.058412038 0.08293282 0.21498543 -0.34811577
000090 d2 94 8f be 3f 9d 3e bd d4 b4 22 be 7e 20 1e be
       -0.28043228 -0.04653668 -0.15889293 -0.15442082
0000a0 55 41 63 3d 6c 5c a3 be 0c 70 21 3e ce 8d dd 3d
       0.055482227 -0.3190645 0.15765399 0.10818063
0000b0 d2 38 2c 3e c0 c5 e1 3e af e8 d6 3e 75 93 0a 3e
       0.1681855 0.44096184 0.41974398 0.13532813
0000c0 93 54 af 3e db a7 56 be e3 c3 29 3e 5d 6f 05 3c
       0.34244213 -0.2096247 0.16578631 0.008144227
0000d0 9d 2b 83 be 03 54 91 3e 2c a5 0a 3d 5e 01 60 be
       -0.25619212 0.28384408 0.033848926 -0.21875522
0000e0 ec ab 83 3e 93 1e a1 3e 44 b6 c8 3c 74 64 a3 be
       0.25717103 0.3146864 0.024500974 -0.31912577
0000f0 a6 43 38 be b4 8d e2 bd b0 1c b2 3e 97 01 90 3d
       -0.17994556 -0.11062184 0.34787512 0.07031553
000100 ff 9a 91 3e 66 97 ee be 10 45 18 bd 12 c2 17 3d
       0.28438565 -0.46599883 -0.037175238 0.037050314
000110 56 7a 8a 3e d1 84 1f 3e
       0.2704646 0.15578009

fc_layers.0.bias f4 [10]
000000 58 16 93 be 50 7a df bd c5 1b 47 3e a6 bc 58 bd
       -0.28727984 -0.10912001 0.19444187 -0.052914284
000010 2d 67 88 3e 17 f5 a2 be e9 63 66 bc 20 bc 18 be
       0.26641217 -0.31827614 -0.014061906 -0.14915514
000020 ad 24 a5 3e 33 8f e9 bd
       0.32254544 -0.11404266

fc_layers.2.weight f4 [10, 10]
000000 37 f0 b7 be 38 d4 89 3e 91 85 03 bd 81 f9 ee bd
       -0.35925457 0.26919723 -0.0321098 -0.11668683
000010 57 88 93 3e 84 56 66 3d 52 30 c3 be 20 2f 99 be
       0.28814957 0.05623485 -0.38122803 -0.29918766
000020 ff 6d cc 3e df 07 9e 3e 15 02 6d be ef 15 80 be
       0.3992767 0.3086538 -0.23145325 -0.25016734
000030 ff 3e 65 3e b1 70 7a be c4 d5 a2 3e 81 3c a1 be
       0.22387312 -0.24457051 0.31803715 -0.31491473
000040 af d0 87 3d 27 74 a8 bd 19 86 0c bf 31 cf 1f be
       0.066316 -0.08225279 -0.54892117 -0.15606381
000050 b3 75 d1 3d a5 c8 b8 bd e0 cc 7b 3e 70 ae 08 3e
       0.102275275 -0.09022645 0.24589872 0.13347793
000060 61 27 26 3e 5a da 22 be df b7 65 3e 5b 97 7f be
       0.1622596 -0.15903607 0.22433423 -0.24960081
000070 d8 2b 0d bd 2f 9f 93 3c e8 93 62 bd 1a 86 2f 3c
       -0.03446564 0.01802024 -0.055316836 0.010713125
000080 9e ed bb 3d bd c1 46 3e 4b 13 db bd 6b 63 80 3e
       0.09176181 0.19409843 -0.10697039 0.2507585
000090 66 4d 81 3d 33 6a cd 3d d5 f0 58 bd c7 6a 55 3d
       0.06313591 0.100300215 -0.05296405 0.052103784
0000a0 d0 64 0c bf b8 86 f2 3d aa c0 b1 3d aa f9 13 be
       -0.5484133 0.11842102 0.08679326 -0.14450708
0000b0 26 4f 60 be ff 6c 61 be aa 30 44 3e b8 65 9e 3e
       -0.21905193 -0.22014235 0.19159189 0.3093698
0000c0 47 a9 33 3e c3 ec 2f 3e fc b5 4b bc 3c f2 28 be
       0.17545043 0.17180161 -0.012433525 -0.16498655
0000d0 75 a3 19 bc f5 9d a6 be 74 0e 88 bd 4d dc 98 be
       -0.00937735 -0.32542387 -0.06643382 -0.29855576
0000e0 17 bd d9 bd 36 a4 62 be cc 39 09 3d 17 0a 9f 3e
       -0.10631769 -0.22132954 0.033502385 0.31062385
0000f0 c1 a0 5b be ba 77 8e be 04 a9 76 be 26 00 66 be
       -0.21448041 -0.2782572 -0.24087912 -0.22460994
000100 40 41 a8 3d 62 7c d9 3d bb fd 80 be 8b 52 17 be
       0.082155704 0.10619427 -0.2519358 -0.14777581
000110 ea 6d 44 3e 39 6c 1e be f1 1c f8 bd 21 b7 0a be
       0.19182554 -0.15470971 -0.12114895 -0.1354642
000120 21 d4 cf 3d f7 be 57 3e 6d 25 1b bf 7d b4 2e 3e
       0.10147882 0.21068941 -0.6060398 0.17061038
000130 6c d5 ce bd af 5a 18 3e e8 9a 89 be c7 38 05 3d
       -0.10099301 0.14878343 -0.26875997 0.03252485
000140 91 62 c5 3e 38 c1 93 bb cc f5 e2 3e bb 85 8d 3d
       0.38551763 -0.0045091175 0.44328153 0.06910273
000150 cd b6 ae 3e 42 cd 4c 3d 71 b3 26 bd a3 a6 1c be
       0.3412384 0.050000437 -0.040698472 -0.15297942
000160 e6 4d 4b bd 11 54 95 bc 54 4e 21 3e 30 23 3b 3e
       -0.049634837 -0.018228563 0.15752536 0.18275142
000170 39 57 ce 3d 53 d6 0d bf 5d 30 5a 3e e7 7d 62 bd
       0.1007523 -0.5540516 0.21307512 -0.05529585
000180 d9 7b c0 3d 9b cb 6d be 57 07 5d bd 3a 51 26 be
       0.09398622 -0.232222 -0.053962078 -0.16241923

fc_layers.2.bias f4 [10]
000000 38 86 9c bd d9 44 34 be 81 db ce ba 97 89 85 be
       -0.07642788 -0.17604388 -0.001578197 -0.26081535
000010 80 75 b8 bc 2c 68 07 3e 43 b8 2d 3e b4 d5 ee 3c
       -0.022516966 0.13223332 0.16964822 0.029154636
000020 30 16 77 3e c2 4b 6b 3e
       0.24129558 0.22978118

fc_layers.4.weight f4 [2, 10]
000000 8d d7 bd be e0 f7 50 3e 62 e5 3a 3e 6d 80 54 be
       -0.37078515 0.20407057 0.18251565 -0.20752116
000010 07 35 56 be b1 85 2f bf 4a 14 0a 3e 29 90 6a 3f
       -0.20918666 -0.6856337 0.13484302 0.9162622
000020 14 28 92 3e 2d f5 f5 be 89 c4 c1 3e 15 6f 9d be
       0.28546202 -0.48038617 0.37845257 -0.3074881
000030 ad e4 04 3d 72 95 54 be 68 66 a8 3e ca d7 4a 3f
       0.032444645 -0.20760134 0.3289063 0.7923552
000040 57 06 86 3e 28 4a 94 bf 9c a5 e2 be 53 a6 25 3f
       0.26176712 -1.1585131 -0.44266975 0.64706916

fc_layers.4.bias f4 [2]
000000 b7 00 32 3d 7d d5 3e 3e
       0.043457713 0.18636127
