model/nn_t=180.pth (torch, 12083 bytes, 6 tensors)

weight f4 [5, 4]
000000 64 fe 4f bf 5d 49 a1 3f 8c 5c c3 3f 37 b3 b6 3c
       -0.81247544 1.2600514 1.5262618 0.022302253
000010 55 4e a9 3f ca 53 27 3f 72 03 19 3d b5 4d 9d bd
       1.322703 0.65362227 0.0373568 -0.07680837
000020 96 0b 03 3f 56 41 92 bf e8 95 1a 3f e2 31 22 bf
       0.51189554 -1.1426189 0.6038499 -0.63357365
000030 54 5f 90 bf 99 ec 95 be e6 4c 8b bf b4 f4 8d 3f
       -1.1279092 -0.29282072 -1.0882843 1.1090302
000040 77 ef 6d 3d 45 f3 3b 3d 07 36 ac bf 65 1f 22 bf
       0.0580897 0.045886297 -1.3453988 -0.63329154

bias f4 [5]
000000 61 5c 6e bd 35 91 92 3f ab 9b bf 3f 36 06 20 bd
       -0.05819357 1.1450564 1.4969381 -0.039068423
000010 a0 0c d6 3f
       1.6722603

weight f4 [5, 5]
000000 b9 b2 14 3f ac 63 8c 3f 30 62 c5 bf 04 b3 55 3e
       0.5808521 1.0967917 -1.542059 0.2086907
000010 b3 27 23 3f f0 a7 91 3f ed 82 1a 3f e5 a9 00 c0
       0.6373245 1.1379375 0.60356027 -2.0103695
000020 32 1f b5 3e f3 a5 1a 3f 90 01 cd bd 47 2f 5a 3f
       0.35375363 0.6040947 -0.10010064 0.8522839
000030 d4 00 37 3f 83 15 9c be e2 7f b3 bf ac cc 21 3e
       0.7148564 -0.30485162 -1.4023402 0.15800732
000040 d5 d6 0a c0 94 c3 19 be ef 1e b8 3f 1e 63 4d 3f
       -2.1693623 -0.15016013 1.438444 0.80229366
000050 c4 1a dc 3f d9 dd 65 bf a6 b5 5f 3f 9f ad f2 be
       1.7195668 -0.8979164 0.8738655 -0.47398087
000060 99 04 56 3f
       0.83600765

bias f4 [5]
000000 ce 3e 3f 3f 6f 26 f9 bc 20 fb 02 3f 6e b7 cc bd
       0.7470521 -0.030413834 0.51164436 -0.09995924
000010 61 81 65 3f
       0.8965054

weight f4 [5, 5]
000000 fe 69 24 be 16 37 8f 3f 48 58 0e bf f7 41 19 3e
       -0.16056058 1.1188686 -0.55603456 0.1496657
000010 a9 a8 3c bd 0c 57 97 bf 6a 45 30 bf b9 bd 1c bf
       -0.046059284 -1.182344 -0.6885592 -0.61226994
000020 8d f5 b2 3f ec e1 8e 3b 02 b5 95 3f 12 ea 70 3f
       1.3981186 0.004360428 1.1695864 0.9410716
000030 5a 05 a3 bf 2f 0b 0d bf 28 06 7c bf 71 78 88 bf
       -1.2736008 -0.5509519 -0.98446894 -1.0661756
000040 b1 2b 38 bf 02 79 e7 bd 07 8c ea bf e0 cd c1 3f
       -0.7194167 -0.11302377 -1.8323983 1.5140953
000050 3d f6 c1 3e b6 2d e7 bf 3e 35 98 3f 30 b2 da be
       0.37883177 -1.8060825 1.1891248 -0.4271407
000060 b9 11 9c bf
       -1.2192909

bias f4 [5]
000000 d7 60 9e bf f4 4c 38 3e ea 1d 7a be 1b 54 92 3e
       -1.2373303 0.17998105 -0.24425474 0.28579792
000010 fd 78 4f 3e
       0.20260997
