v0/model/model_t=60.pth (torch, 3430 bytes, 6 tensors)

fc_layers.0.weight f4 [10, 5]
0	0xbe7d41a5	-0.24732073
1	0xbdf3cacb	-0.11903914
2	0xbb9319ba	-0.004489151
3	0xbde94780	-0.11390591
4	0x3ef5bd19	0.47995833
5	0x3d204b56	0.039134346
6	0xbe5740e8	-0.21020854
7	0x3ecc1d67	0.39866182
8	0x3f075e36	0.5287813
9	0x3eb13070	0.34607267
10	0x3e85644f	0.26053092
11	0x3e0ef18f	0.13959335
12	0xbe776bda	-0.24162236
13	0xbed2e6b1	-0.4119163
14	0x3e236872	0.15957811
15	0xbdc68af6	-0.096944734
16	0x3ec19b98	0.3781402
17	0xbef9cdab	-0.48789725
18	0x3f0a8347	0.54106563
19	0x3c4d7a3c	0.01254135
20	0xbeb3105c	-0.3497342
21	0xbde0a484	-0.10968879
22	0x3e77a61b	0.24184458
23	0x3efa156b	0.48844466
24	0x3da88913	0.0822927
25	0x3e44d72c	0.19222707
26	0x3dcf3772	0.10117997
27	0xbdca85ef	-0.09888827
28	0x3ea3495a	0.318919
29	0x3ec7d734	0.39031374
30	0x3e1cba11	0.15305354
31	0x3e8e593e	0.2780246
32	0x3c1ccf8e	0.009570969
33	0x3c22011b	0.009887959
34	0xbf24452b	-0.6416804
35	0x3eee71f5	0.46571317
36	0x3defb456	0.11704318
37	0x3e189966	0.14902267
38	0x3dff15cf	0.124553315
39	0x3e99ffa9	0.30077866
40	0x3e69a05f	0.22815083
41	0xbe2220d9	-0.15832843
42	0x3eae09d2	0.33991867
43	0x3e8d71e3	0.2762595
44	0x3f004a18	0.5011306
45	0x3dc868e6	0.09785633
46	0xbea09498	-0.31363368
47	0x3deebe21	0.11657358
48	0x3e5413a9	0.20710625
49	0xbea9e759	-0.33184317

fc_layers.0.bias f4 [10]
0	0xbe7e91e0	-0.24860334
1	0x3e63ac0f	0.22233604
2	0xbee90ae0	-0.4551611
3	0x3deffb1c	0.11717817
4	0x3ea0ffbe	0.31445116
5	0x3e4c3ff9	0.19946279
6	0x3e9b76a4	0.30363953
7	0xbe25f2d8	-0.16205919
8	0xbeb09d14	-0.3449484
9	0xbe162170	-0.14661193

fc_layers.2.weight f4 [10, 10]
0	0x3e757bf8	0.23973072
1	0xbe834b28	-0.25643277
2	0x3e3ec984	0.1863156
3	0x3f0a52da	0.5403267
4	0xbeaf226f	-0.34205958
5	0xbe1ba55d	-0.151998
6	0xbd63e2fa	-0.055636384
7	0x3d6e5813	0.058189463
8	0xbdc3fe23	-0.09569957
9	0x3b25cf09	0.0025300405
10	0x3e3d30ef	0.18475698
11	0xbd8ce333	-0.06879272
12	0xbed786c8	-0.42095017
13	0xbe87a371	-0.26491883
14	0x3da9c127	0.08288794
15	0x3e4b1396	0.1983169
16	0xbe137c45	-0.14402874
17	0xbe0944b7	-0.13405119
18	0x3ec29f92	0.38012367
19	0xbdab75c0	-0.083720684
20	0xbd9bdf98	-0.076110065
21	0x3ead1c59	0.3381069
22	0xbe5ea4e9	-0.21742596
23	0xbf019333	-0.50615233
24	0xbc89c6c9	-0.016818421
25	0xbe44cd4d	-0.19218941
26	0x3c0e78a8	0.008695759
27	0x3e9678f9	0.2938917
28	0x3eaef823	0.34173688
29	0xbd41611d	-0.047211755
30	0xbcbd77cc	-0.023128413
31	0x3d2f3b06	0.0427809
32	0xbe0b4a85	-0.13602646
33	0x3ec48dd6	0.38389462
34	0xbe703c8c	-0.23460597
35	0xbe39f1c1	-0.18158628
36	0x3e3e94ae	0.18611404
37	0x3e981bc1	0.29708675
38	0xbd984924	-0.074358255
39	0xbdfb8f3a	-0.12283178
40	0x3e7df4fd	0.24800487
41	0xbd3adfe6	-0.045623682
42	0x3eac2f70	0.33629942
43	0x3e59e100	0.21277237
44	0xbebfe475	-0.37478986
45	0x3e4e9682	0.20174602
46	0x3ea38837	0.3193986
47	0x3d2a4be3	0.041576277
48	0xbd659905	-0.056054134
49	0xbda07134	-0.07834092
50	0x3e2e7a92	0.17038944
51	0xbe0e80b8	-0.1391629
52	0xbd3c987f	-0.04604387
53	0x3e286453	0.1644452
54	0xbe399696	-0.1812385
55	0xbd120c14	-0.03565605
56	0x3e0c7ee3	0.13720278
57	0x3df4dd28	0.11956245
58	0xbe9dba6c	-0.3080629
59	0xbedca5d5	-0.4309527
60	0x3e1fb33e	0.15595719
61	0xbd90145c	-0.07035133
62	0x3e7c32e9	0.24628796
63	0x3eb765fb	0.35819992
64	0xbe2dfbc1	-0.16990568
65	0x3e29cdd0	0.16582417
66	0x3de92e9f	0.113858454
67	0x3df74bf7	0.12075036
68	0xbe259ccb	-0.16173093
69	0x3cf77392	0.030206475
70	0xbe9f29b2	-0.31086498
71	0x3e65235a	0.22376767
72	0xbec617b6	-0.38689965
73	0xbf297224	-0.6618979
74	0xbe371b7a	-0.17881575
75	0x3e04aed0	0.1295731
76	0xbe9826d2	-0.29717118
77	0x3c29d4c8	0.010365672
78	0x3da9f378	0.08298391
79	0xbb9cea9e	-0.0047887107
80	0xbebc8c1a	-0.3682564
81	0x3ec5bafa	0.38619214
82	0xbee69b57	-0.4504039
83	0xbe4b6fe7	-0.19866906
84	0xbd84f3ed	-0.06491838
85	0x3dc00a8e	0.09377013
86	0xbd8964af	-0.06708657
87	0x3e0d8c16	0.1382297
88	0xbd941da1	-0.07232214
89	0xbda6100a	-0.08108528
90	0x3e4a47f1	0.19754006
91	0x3cb4284d	0.021991873
92	0x3f35f2d7	0.7107367
93	0x3e3770f2	0.17914179
94	0xbe94b402	-0.29043585
95	0xbec549ca	-0.3853286
96	0x3f3640d3	0.71192664
97	0xbde553f1	-0.11197651
98	0x3e68f4ac	0.22749585
99	0x3f147151	0.5798541

fc_layers.2.bias f4 [10]
0	0x3c4a3f9d	0.012344268
1	0x3e6f38ce	0.23361513
2	0x3f0dac00	0.55340576
3	0xbeca4cb5	-0.39511648
4	0x3d9b8929	0.075945206
5	0x3ecfd857	0.40594742
6	0x3e2be605	0.16786964
7	0x3db4ae75	0.088223375
8	0x3ebc7f3c	0.36815822
9	0xbeecda43	-0.4626027

fc_layers.4.weight f4 [2, 10]
0	0x3dcdd49f	0.1005032
1	0x3dabd20d	0.083896734
2	0xbe3dce05	-0.18535621
3	0xbe820ab5	-0.25398794
4	0xbd980bab	-0.074241005
5	0x3f12aa93	0.57291526
6	0xbe8a5763	-0.27019796
7	0x3ea3efcb	0.32018885
8	0xbdb3f172	-0.087862864
9	0xbf1ebab8	-0.6200366
10	0xbf1e1a1b	-0.61758584
11	0xbe3ff6a9	-0.18746437
12	0xbe875e1d	-0.2643899
13	0x3ea64adb	0.32478985
14	0x3ec0107c	0.37512577
15	0xbf14997c	-0.580467
16	0x3eb39e03	0.3508149
17	0xbf020eb5	-0.5080369
18	0xbe432fbe	-0.19061181
19	0x3f58ca48	0.84683657

fc_layers.4.bias f4 [2]
0	0x3e58d6ac	0.21175641
1	0xbe87a3a3	-0.26492032
